models/model.pth (torch, 19197 bytes, 6 tensors)

fc1.weight f4 [64, 30]
000000 44 f9 6a bc 44 04 38 3d bd 83 e3 bd d1 1a d3 3d
       -0.014341656 0.044925943 -0.111091115 0.10307849
000010 16 e3 49 bc 0d 86 f4 bd a4 3c a2 bd d5 b5 8a bd
       -0.012322208 -0.11939631 -0.079217225 -0.06772963
000020 1a d5 7b 3d c1 86 02 be 4b c1 bd bc 6b 81 f9 bd
       0.061482526 -0.12746717 -0.023163458 -0.12182888
000030 db 65 5e be a8 48 51 be b4 ea 0c 3e 8c 50 34 3e
       -0.21718542 -0.20437872 0.13761407 0.17608851
000040 df 58 13 3e 4e 2a af 3d 1c b1 ff 3d cf 0d 2b bc
       0.1438937 0.08552991 0.12484953 -0.010440304
000050 9e 0f 2a be fa 61 a1 3d ed 98 14 be 08 23 54 be
       -0.1660752 0.07880016 -0.14511462 -0.20716488
000060 1f 19 07 be 05 27 89 3d 8f 86 aa 3d 2c c9 07 be
       -0.13193177 0.066968955 0.08326446 -0.13260335
000070 08 14 0e be 3a 05 15 3d dc 72 15 be 0a e7 3f be
       -0.13874829 0.036381938 -0.14594597 -0.18740478
000080 c1 1d 22 3d e8 98 9d bd a2 49 3a 3e ef 5b 1b 3e
       0.039579157 -0.0769518 0.18192151 0.15171789
000090 cc 7b 20 bd 6c ce ef bc ac dc de bc 0b 90 ec 3c
       -0.039180562 -0.029273234 -0.027204834 0.028877279
0000a0 f9 96 04 be 08 96 67 3c 9a c3 20 bd 0b b3 12 3d
       -0.12948216 0.014134891 -0.03924904 0.03581528
0000b0 b6 55 c9 3b d2 6c 73 bd ba fe ff bd 5e c5 be bd
       0.0061442507 -0.05942995 -0.12499757 -0.093149886
0000c0 3e 36 a2 3d 76 05 39 3e 9a 6d a1 3d d7 5e a0 3b
       0.07920502 0.1806849 0.07882233 0.0048941183
0000d0 29 4d 4d be 03 d6 50 be e5 ad 8b bd 28 fe 9f bd
       -0.20048966 -0.20394139 -0.06820277 -0.07812148
0000e0 8f a7 4a bd 1f f4 86 be d9 ed e0 bc 87 42 49 be
       -0.049476203 -0.26358125 -0.027457165 -0.19654284
0000f0 ba b8 4b be 63 63 6f be 33 6b 9c 3d b2 e8 82 be
       -0.19894686 -0.23377757 0.07637634 -0.25568157
000100 db 05 cd 3d 3f 3c db bc c9 62 a8 bd ac ef 10 3d
       0.100108825 -0.026762126 -0.08221967 0.03538482
000110 b0 b6 9c bd 76 a1 24 3e 41 aa 9c 3d 95 24 6b be
       -0.076520324 0.16077217 0.07649661 -0.22963174
000120 54 af 14 3d b3 83 35 bd c8 83 2f 3d df 20 40 3d
       0.03630002 -0.04431505 0.042850286 0.04690635
000130 c4 ce 84 3d 5a 5c cc bd de c8 61 bd 28 5c 4a 3e
       0.0648475 -0.09978552 -0.055123203 0.19761717
000140 66 32 08 3d a8 0d b9 bd 21 ab 77 be ca d7 b5 bd
       0.03325119 -0.09035808 -0.24186374 -0.08879049
000150 5b b8 1e be 23 c7 09 3e a0 24 17 be 54 ae c8 bd
       -0.15500014 0.13454871 -0.14760065 -0.097988755
000160 eb 6e 00 be 9d d8 7b 3c 2c d3 fe 3d c0 51 84 bd
       -0.12542312 0.015371469 0.124426216 -0.06460905
000170 d7 ba 3d 3d 0b 6f a3 3d cd 27 09 3e 28 4a 6f bd
       0.046320762 0.07980164 0.13394089 -0.05842033
000180 7a fe ff bd 70 0a f1 3b b8 eb 6f bd 48 0a c0 3d
       -0.124997094 0.0073559806 -0.05857441 0.09376961
000190 0c 27 25 be b8 e6 27 be 60 9a 0e bd 0d 38 d7 bd
       -0.16128176 -0.16396606 -0.034815192 -0.10508738
0001a0 95 4f a4 bc 06 d4 32 3e 77 ab 9d 3d 3b 5b d8 3d
       -0.020057479 0.17463693 0.0769872 0.10564276
0001b0 e5 8f e5 3c 07 53 37 be 3d b6 4b be 5f 67 22 be
       0.028022716 -0.17902766 -0.19893737 -0.15859745
0001c0 1c 16 66 be 97 d4 3f be 11 4b 54 be 3a 1a 2f be
       -0.22469372 -0.1873344 -0.2073176 -0.17099848
0001d0 36 bc 26 be 41 a4 66 be 5f 8b d2 bd a4 55 98 3d
       -0.16282734 -0.22523595 -0.10280489 0.0743821
0001e0 90 5c 90 3d 26 14 35 be 2a 79 0a be 1a 87 81 3c
       0.07048905 -0.17683467 -0.13522783 0.015811492
0001f0 55 4c 19 be 69 b5 a2 bd 51 47 57 3d a8 8f 80 be
       -0.14970525 -0.079447575 0.052558247 -0.251096
000200 d6 71 e6 3c b3 03 4f 3e 51 6e b8 bc e4 a2 ef bc
       0.028130453 0.20216255 -0.02251354 -0.029252477
000210 86 07 22 be cb a8 dc bd 6b 60 35 bd 64 09 6d 3d
       -0.15823182 -0.10774382 -0.044281404 0.057870284
000220 2d d4 59 3d e2 3b ec 3d 6f 7d fa bd b9 16 60 3b
       0.053180862 0.11534859 -0.12230956 0.0034193231
000230 4c 1d 38 be ec 6e 92 be 98 89 ad bd c0 19 8b be
       -0.17979926 -0.28600252 -0.084735096 -0.27168083
000240 c5 48 a9 3d 3a d2 69 3d ef cd 06 be 4d 92 4f 3d
       0.08265833 0.057085253 -0.13164495 0.050676633
000250 58 0f 3c be d3 39 24 bd cb c8 19 be e8 6b 86 be
       -0.18365228 -0.040094208 -0.15018003 -0.262542
000260 5d e2 6e be 05 79 0e be 49 a9 ab 3d 2e 06 0c 3e
       -0.23328538 -0.13913353 0.08381898 0.13674232
000270 0e 85 9a 3d f1 1d 53 be 90 e8 37 be a0 8d 35 3e
       0.075449094 -0.2061689 -0.1795981 0.17729807
000280 eb c2 d2 ba 45 a9 d8 bc bf 7d 78 bc 79 de 80 be
       -0.0016079819 -0.026447902 -0.015166699 -0.25169733
000290 f8 7b 9f 3b 88 dc 4b 3e e6 df fd bc b8 78 02 3b
       0.004867073 0.19908345 -0.030990552 0.001990838
0002a0 60 4e 05 be f7 80 b3 bd a7 8b fd bd 54 d7 6e be
       -0.13018179 -0.087648325 -0.12380152 -0.23324329
0002b0 6e ff ff bd 69 e7 7e bd f9 15 62 be dc 13 46 bb
       -0.12499891 -0.06223241 -0.22078694 -0.003022424
0002c0 10 23 1d be 0f 30 3b be 72 8d 29 bd 0b d6 a3 3d
       -0.15345407 -0.18280052 -0.04139466 0.0799981
0002d0 e6 5a d3 bd a6 f0 25 bd b8 d2 5a be bf a8 18 be
       -0.10320072 -0.040512703 -0.21369445 -0.14908122
0002e0 39 10 82 be 81 c2 98 bd 31 b8 1a bd e5 fe 94 be
       -0.25403002 -0.07458974 -0.037773315 -0.2910072
0002f0 46 54 ca 3d 21 5b a8 3d eb 2b 91 be 46 ea 26 be
       0.09879355 0.082205065 -0.2835382 -0.16300306
000300 10 66 29 bc 78 56 2b be 77 7d a0 bd b3 b1 87 bc
       -0.010339275 -0.16732204 -0.078364305 -0.016564226
000310 8a 55 26 3e 9d 85 93 bd fa 3f 19 3e c8 78 bc 3d
       0.16243568 -0.07203219 0.14965811 0.09202725
000320 9b 04 3a bd 42 09 11 3e ee f4 c6 bd c4 31 58 be
       -0.04541455 0.14163688 -0.097146854 -0.21112734
000330 81 37 29 be d0 c7 2d 3e e5 8a 27 be f1 48 09 bc
       -0.1652508 0.16970754 -0.16361578 -0.008379207
000340 fe 46 86 be ab 5a b5 3d a7 9b c1 3c ec 2d 50 bc
       -0.26226038 0.08855184 0.023633791 -0.012706261
000350 cb 1d 27 3d 26 55 12 bd 83 15 2d bc 14 2b 3b be
       0.040799897 -0.035725735 -0.010564211 -0.18278152
000360 cd 19 cf bd 22 bd 7a bc 06 46 25 3e 29 a7 98 3d
       -0.10112343 -0.015303882 0.16139993 0.07453758
000370 d6 fb 43 be 80 1d f6 3d 7a f5 a4 bd 63 b6 01 be
       -0.19139037 0.120173454 -0.080546334 -0.12667231
000380 bb 1d 4a be 37 d2 05 3d 23 4f 0c 3e 15 5f 29 3d
       -0.19737904 0.03267118 0.13702063 0.041350443
000390 c0 26 ab bd 2d c9 ff 3d dc 9c e1 bd 6d 72 f5 3d
       -0.08357 0.12489543 -0.11016247 0.119847156
0003a0 42 ab 4e be ab 46 04 be 16 86 a2 be 17 31 ce bd
       -0.20182517 -0.12917583 -0.31742924 -0.10067957
0003b0 8d a9 d6 bc 20 78 f5 3d 05 14 88 bd 66 e8 01 3e
       -0.026203895 0.11985803 -0.066444434 0.12686309
0003c0 4b 1b dd 3d 80 55 1b 3e a7 78 54 3e c0 7e 52 3e
       0.10796221 0.15169334 0.2074915 0.20556164
0003d0 c1 de 6a bb a6 bd 4a 3e 6d ae 4d 3e c9 21 1f 3d
       -0.0035838338 0.19798908 0.2008607 0.03885058
0003e0 67 60 a4 bd 98 2c 38 be 8e 62 a4 3d 64 cf 20 be
       -0.080262 -0.17985761 0.0802661 -0.15704113
0003f0 8b dd ac 3d 9a 83 d3 3d b5 35 02 be 58 b9 cc bc
       0.084406935 0.103278354 -0.127158 -0.024990723

fc1.bias f4 [64]
000000 d1 06 8d 3d d3 37 23 3e 2b bb 49 bd 7f 98 24 3e
       0.06886066 0.15939264 -0.049250763 0.16073798
000010 3b 05 44 3d 55 d4 70 3d f6 58 6e 3d 83 db 4d 3d
       0.04785655 0.058796246 0.05819031 0.05025817
000020 38 db d4 bd 3d 0a 28 3d 67 fd e0 bc d9 55 65 3e
       -0.10393375 0.04102539 -0.027464582 0.2239603
000030 4f ce 5c 3e 71 e6 62 bd 4c 36 c7 3d 2f 89 e0 bc
       0.21563075 -0.055395547 0.09727153 -0.027409164
000040 dc a7 a7 bd fd 27 18 3d 7b 36 e1 bc b6 71 f6 bd
       -0.081863135 0.03714751 -0.027491799 -0.120334074
000050 3d 7f c0 bd 7e 4c a3 bd 7e b6 6f 3e 37 12 33 3e
       -0.09399269 -0.07973574 0.23409459 0.17487417
000060 e4 0a 27 3d bd 6c c6 bd 6f 43 75 bd 2f a0 5b bd
       0.04078187 -0.09688709 -0.059878763 -0.05361956
000070 ff a7 9a 3d 4d b4 69 3e 4a 50 6c 3c e2 0f 07 bd
       0.07551574 0.22822686 0.014423439 -0.03297413
000080 57 dd 73 3e e6 47 1f be 54 4a c9 bd f2 65 9d 3d
       0.23814903 -0.15554771 -0.0982863 0.0768546
000090 de 4f a3 bd a9 32 c3 3d 4f c2 48 3e 0d 47 9d ba
       -0.07974218 0.09531147 0.19605373 -0.0011999324
0000a0 43 8c 7f bd a4 64 fa 3d 67 18 13 be c0 d6 34 3e
       -0.062389623 0.12226227 -0.14364778 0.17660046
0000b0 a0 00 fa bc c6 64 3a 3e 8a 4a b2 bd 51 82 64 bd
       -0.030517876 0.18202505 -0.087056234 -0.055788342
0000c0 c0 d7 89 3d d4 82 18 3e 33 3c 70 3e 61 27 7c 3e
       0.06730604 0.14893657 0.23460464 0.24624397
0000d0 1a 11 fc bc f5 53 dc bc 95 bf be 3c af eb 94 bc
       -0.030769873 -0.026895503 0.023284713 -0.018178789
0000e0 d3 80 d9 3c 66 9e d8 bd 64 d0 9b bc 57 ef 3f 3e
       0.026550686 -0.10577087 -0.019020267 0.18743645
0000f0 82 f8 e0 bb 21 07 67 3e ca 98 e0 3d ec 65 c9 3d
       -0.006865562 0.22561313 0.10966642 0.09833893

fc2.weight f4 [32, 64]
000000 e9 62 2a 3e de d2 cf 3c 54 80 5b 3d 72 da b7 3d
       0.16639294 0.025369104 0.05358918 0.08977212
000010 e5 60 fe 3d a7 86 09 bd 53 59 f4 3d 3d f7 d4 bb
       0.12420825 -0.03357568 0.119311 -0.0064991997
000020 21 81 0d bd e3 15 19 3e a2 a6 15 3d 63 5a 87 3d
       -0.034546975 0.14949755 0.036535867 0.06609037
000030 09 18 20 bc 99 c5 8f 3d b0 28 7d 3c c5 f6 32 bd
       -0.009771355 0.07020111 0.015451595 -0.04369237
000040 c0 da 9e bc db 37 b5 bd c4 ba 1c 3e ec 10 19 3e
       -0.019391418 -0.08848544 0.1530562 0.14947861
000050 10 1e 0a 3e 1a e3 0f be ca ab fb 3d 88 e8 5f 3d
       0.1348803 -0.14051476 0.122886255 0.05466512
000060 87 41 3d 3e c5 be b5 3d 67 1c 98 bd e4 9e f0 bd
       0.18482028 0.08874277 -0.07427292 -0.11749056
000070 8f da 55 3e ed 0c d8 3b bc 15 28 3d ed 53 85 bd
       0.20884155 0.0065933377 0.041036353 -0.06510148
000080 12 cd c0 3c 01 e1 bb bd 0b d9 77 bd 28 f6 0d 3d
       0.023535285 -0.091737755 -0.060509723 0.03465858
000090 a4 7c 0c be ea 3b 20 be c3 a4 2e 3e d1 c8 10 3e
       -0.13719422 -0.15647855 0.17055039 0.14139105
0000a0 10 dc 27 3d 5b 5f d6 bd bb 8e ab 3c 92 40 8d bd
       0.040981352 -0.10467406 0.020942083 -0.068970814
0000b0 17 86 fa 3d 9c 79 77 3d 0d a3 ee bb 55 d9 d4 bd
       0.12232607 0.06041871 -0.0072826208 -0.10393015
0000c0 1f 59 b6 bb 8a 07 05 3e 2c 17 06 3e f9 ff a9 3d
       -0.0055648233 0.12991157 0.13094777 0.08300776
0000d0 b3 73 17 3c 60 55 ec 3d 18 ff 65 3c 30 9e 08 bd
       0.009243893 0.115397215 0.01403787 -0.033353984
0000e0 c2 4c bc bd b2 43 49 bc 06 a7 02 3e da 18 c4 3d
       -0.09194328 -0.012284206 0.12759027 0.095750526
0000f0 ab ce 1d 3e 20 75 78 3d c2 8a 26 3e 4e a0 aa bd
       0.15410869 0.060658574 0.1626387 -0.08331357
000100 88 a7 82 bd 13 0d b6 bd ed 02 25 be f2 31 ef bd
       -0.0637961 -0.088892125 -0.16114397 -0.11679448
000110 4b df 2c be 2b 5d 81 bd c5 00 83 bd 03 a9 40 bd
       -0.16882055 -0.063165985 -0.06396631 -0.047036182
000120 d8 f2 5c bc 54 94 77 3d f1 cf 32 bd e9 d2 32 3d
       -0.013485633 0.06044419 -0.04365534 0.04365817
000130 c2 f4 1f 3e cc 38 48 bc ba 5d 82 3d 07 e0 27 3e
       0.15620711 -0.012220573 0.06365533 0.16394053
000140 79 1f a9 3d 84 bb 5a 3d a8 f9 94 3d 37 54 c1 bd
       0.08257956 0.053401485 0.07274181 -0.09439891
000150 3b b3 e1 bd 8d a8 29 3e f6 54 4a 3d 9e 7b c0 3d
       -0.110205136 0.16568203 0.04939743 0.09398578
000160 14 fa 1c bd c9 46 54 3c d4 39 69 3e b0 4e 43 3e
       -0.03832443 0.01295633 0.22775966 0.19072986
000170 31 ea 1f bd 2b bc ff bd 03 a4 a5 3d e4 00 46 bd
       -0.0390417 -0.12487062 0.080879234 -0.048340693
000180 cd 44 ce 3d a4 65 68 3d f4 2b d2 3d d7 b9 00 3e
       0.100717165 0.056737557 0.1026229 0.12570892
000190 fb 1e f9 3d 62 66 56 3c 20 61 43 3d 18 95 a7 3c
       0.12164112 0.013085933 0.047700047 0.020456836
0001a0 0d 84 07 bd 15 90 22 3e ad 57 06 3d ca b1 2e 3d
       -0.033084918 0.15875275 0.032798458 0.04265002
0001b0 ca 93 9e bd 42 1a b9 bd 88 e5 ce bd 5d 88 0e 3e
       -0.07743032 -0.090382114 -0.10102373 0.13919206
0001c0 c0 27 98 3d 8b 26 8d bd b0 a7 03 3e d8 cd ac bd
       0.07429457 -0.06892117 0.12856936 -0.08437699
0001d0 de bb 97 3c 59 e4 33 bd ef fb 75 3d e4 07 b7 3d
       0.0185222 -0.04391894 0.060054716 0.08937052
0001e0 65 b5 0b 3e 2d ec 24 3d a8 51 aa bd b2 44 aa 3d
       0.13643415 0.040264297 -0.08316356 0.08313884
0001f0 4b 12 55 3d 52 7f 45 bb f3 8e a4 bd 7e ae bc 3d
       0.0520194 -0.0030135703 -0.08035078 0.09212969
000200 1e f4 99 3d 93 2a 5d 3e 8c b0 e8 3d 1f ab b7 3d
       0.07517265 0.21598272 0.11361799 0.08968186
000210 a7 d8 db 3d 82 1e 2e 3e 54 67 c9 3d a7 c9 49 3e
       0.107346825 0.17003825 0.098341614 0.1970583
000220 4f f8 4d 3c 8d e1 fb bb 82 b9 80 3d 5f 0e d2 ba
       0.012571408 -0.0076868 0.06285383 -0.0016026011
000230 9a c6 b1 bd e5 62 e7 bb 42 21 38 bd b0 ef ad bd
       -0.08680458 -0.0070613497 -0.044953592 -0.084929824
000240 5b c7 41 3e a8 b6 ca bd bf 4a 7e 3c 16 86 29 3d
       0.18923704 -0.0989812 0.015520751 0.04138764
000250 ec 67 a2 3d 16 93 8d bd f9 b4 0f 3e d7 4f c7 3c
       0.07929978 -0.0691282 0.1403388 0.024330063
000260 fa c7 1b 3d ce 71 90 bb 4b 1a 90 3c 31 1f 4d bd
       0.03803251 -0.004408098 0.017590662 -0.050078575
000270 45 b0 34 3e 41 62 e5 3d 2b a8 47 3d 04 23 0d 3e
       0.17645366 0.11200381 0.04874436 0.13782889
000280 36 8d 2b 3e c4 fa 92 bc 48 62 d6 bd 40 ba 60 bd
       0.16753086 -0.01794184 -0.104679644 -0.05486512
000290 04 3e c1 bc b9 bb c4 3c 66 e2 4c 3d 7a 85 44 3e
       -0.023589142 0.024015294 0.050020598 0.19191542
0002a0 a4 f2 82 3d 6a 7e c1 bc ee 20 a0 3d 36 7b 65 bd
       0.06393936 -0.02361985 0.07818781 -0.056025706
0002b0 8d 34 26 3e 65 4a 09 3e 84 b3 db 3d 9e 70 05 be
       0.16230984 0.13407286 0.10727599 -0.13031241
0002c0 09 28 8f ba 59 d9 c3 3d 04 c0 15 3e 93 b6 0b 3e
       -0.0010921966 0.0956294 0.1462403 0.13643865
0002d0 b7 74 bb 3d a0 c0 a1 bd 2c e5 c1 bb be 0d 8a bd
       0.09153121 -0.078980684 -0.005917212 -0.06740902
0002e0 f9 39 25 be 9a 94 19 3d c7 06 75 3a a1 16 27 3e
       -0.16135396 0.037495233 0.0009347018 0.16317226
0002f0 3d 92 dd 3b 50 86 e7 3d 6f 83 14 3e ca 4e 14 be
       0.0067618177 0.11304915 0.14503263 -0.1448318
000300 24 65 02 3e 09 02 a7 3d cb 5c 16 3e 9e 10 42 3e
       0.12733895 0.08154685 0.14683835 0.18951651
000310 0b d5 11 3d 04 89 18 3d 7d 9c 38 3e da be db 3d
       0.035603564 0.037240043 0.18028446 0.107297614
000320 24 13 43 bd d9 e6 26 3e be 02 47 bb 44 fd a1 3d
       -0.047625676 0.16298999 -0.0030366625 0.07909635
000330 7c 79 a3 3d d9 b6 ab 3c 73 2c 08 be 65 54 3e bd
       0.07982156 0.020961212 -0.13298206 -0.046467204
000340 78 06 05 bd fd 25 aa bd c2 cd 0f 3e 3b e0 df 3c
       -0.032476872 -0.08308027 0.14043334 0.027328601
000350 ec a6 77 3b ba e2 38 bd eb df 8a 3d e2 41 ea bb
       0.0037788702 -0.0451381 0.0678099 -0.007148967
000360 88 69 bf 3b 48 85 cc bd 0d e7 0e bd 95 6c 16 be
       0.0058414377 -0.09986359 -0.034888316 -0.14689858
000370 cf b4 e1 3d 6c 50 56 3d cb ea e2 bd bd 46 cf 3c
       0.110208146 0.05232279 -0.110799395 0.025302285
000380 70 1f 8f bc b0 5c 72 bd cc 1c 8c bc 56 4d ae bd
       -0.017471045 -0.059170425 -0.017103575 -0.085108444
000390 78 af 0c be b4 e6 21 3d 99 18 c3 3d a3 f7 b7 3c
       -0.13738811 0.039526656 0.09526176 0.02245695
0003a0 db 66 61 3d b7 8d 84 3d a7 c0 dc bc 61 0a d3 bd
       0.05502973 0.064723425 -0.026947333 -0.10304714
0003b0 5c da 2d bd 6b 4f dc 3d 73 77 08 3d d8 1b e8 bd
       -0.04244457 0.10757335 0.03331704 -0.11333436
0003c0 02 44 13 3e 1f 6c c0 bc fb 0a 2e 3e 03 b0 88 bc
       0.14381412 -0.023489056 0.16996376 -0.016685491
0003d0 21 7f 0b 3d 2f 12 49 3d 07 e5 83 bd 37 72 0d 3e
       0.034056786 0.049089607 -0.06440168 0.13813101
0003e0 29 2a 0f be ec b5 11 3c 1e 45 98 bc 73 4d a8 3d
       -0.13980927 0.008893471 -0.018587645 0.08217897
0003f0 fe 14 2d 3e e7 93 3b 3e c3 12 9e 3d 6c 31 de bd
       0.16902539 0.18318139 0.07718422 -0.1084927

fc2.bias f4 [32]
000000 a1 1f 19 3e e3 2d b4 bd b6 d6 d7 bc e6 87 0f 3e
       0.14953472 -0.08797815 -0.0263475 0.14016685
000010 13 24 80 3d 27 77 df 3d 03 c3 6d bb eb 37 6e 3d
       0.062568806 0.109113984 -0.0036279566 0.058158796
000020 96 d2 ef 3d 4f f4 96 bc 4a 86 23 3a 31 23 ea 3b
       0.11710088 -0.018427042 0.0006237967 0.0071453084
000030 29 67 e0 3d 15 d9 03 3e c2 bf 00 bd f1 71 38 3c
       0.10957176 0.12875779 -0.031432875 0.0112576345
000040 ab 9d fa 3d b9 ca cb 3c 5d da 3c 3d 17 04 cd 3d
       0.12237104 0.02487694 0.046106685 0.10010546
000050 fd f3 c8 3c de 48 02 3d e9 3e 53 3c 86 8d 33 3d
       0.024530405 0.031807773 0.012893417 0.04383614
000060 49 f8 36 3d b9 57 26 bd ad 31 80 3c 9f 1b c1 3d
       0.044670377 -0.040611003 0.015648687 0.094290964
000070 99 39 64 bd 56 87 0a 3c 2e a0 48 3d 59 23 a7 3d
       -0.055718992 0.008455118 0.048980884 0.08161039

fc3.weight f4 [2, 32]
000000 d2 b9 31 be 39 01 71 3e f5 0f 6d be f9 10 54 be
       -0.17356041 0.23535623 -0.23150618 -0.207096
000010 28 46 68 be 92 49 38 be 55 c9 d4 3d 1b eb 31 bc
       -0.22683012 -0.17996815 0.103899635 -0.010859276
000020 59 97 db 3d 49 08 1c 3e 07 a3 e2 3d 9e 1b 60 bd
       0.10722227 0.15237536 0.11066251 -0.054713838
000030 1c 19 c0 bd 40 c1 95 3e 2a 67 fa bd cd bf 8e 3e
       -0.09379789 0.29249 -0.12226708 0.27880707
000040 7b 48 83 3e 91 ce 45 3e b8 42 89 3b 3c 6a a1 be
       0.25641236 0.1931708 0.0041888617 -0.31526363
000050 df e4 64 be b1 b2 35 3e e5 4b 36 be 90 45 7b 3e
       -0.22352932 0.17743947 -0.17802389 0.24538255
000060 b2 45 02 be 33 e2 fa 3a b9 6f 72 3e 92 d6 fc 3d
       -0.12721899 0.0019140899 0.23675431 0.123456135
000070 f9 e9 85 3e 73 6b 5c be b3 a9 75 be 44 fe 2e be
       0.2615507 -0.21525364 -0.23990516 -0.17089182
000080 8b 23 3a 3e 06 5d 80 be 5e 69 39 3d 11 1f 6d 3e
       0.18177621 -0.2507097 0.0452665 0.23156382
000090 10 cc f4 3d a9 53 5d 3e f5 ca 2c be ef 5e 55 be
       0.11952984 0.21613945 -0.16874297 -0.20836996
0000a0 3f 77 67 be 30 a2 44 be bb 13 8c be 53 d6 5f 3e
       -0.22604083 -0.19202495 -0.27358803 0.21859102
0000b0 1b 3e 3a 3e de 76 70 be cd f0 8c 3e e8 1f 9a bd
       0.18187754 -0.23482844 0.27527466 -0.07525617
0000c0 f2 d3 6e bd 41 8b 3b be 63 7b 5f 3e cf d2 93 3d
       -0.058307596 -0.1831484 0.21824412 0.07217943
0000d0 61 9b 6f 3e 6d c3 4a be 77 74 a2 3e 54 66 19 be
       0.23399116 -0.19801112 0.3172948 -0.14980441
0000e0 51 4e 60 3e 63 0d 3b be c4 a2 19 be d3 6e 29 be
       0.21904875 -0.18266825 -0.15003496 -0.16546182
0000f0 92 20 4e be f1 ae 1c 3d 92 79 07 3e 94 95 49 3e
       -0.20129612 0.038252775 0.13229969 0.19685966

fc3.bias f4 [2]
000000 25 59 a2 3d 42 8b 8c 3c
       0.07927159 0.017156247
